…
ive/My Drive/bert/deberta_ver1_base_new',  # 학습된 모델의 경로를 지정해야 합니다.\n",")\n","model.to(device)"],"metadata":{"colab":{"base_uri":"https://localhost:8080/"},"id":"JzMp9IQVhrqL","executionInfo":{"status":"ok","timestamp":1688160997980,"user_tz":-120,"elapsed":13767,"user":{"displayName":"Mini Som","userId":"12478799869498271302"}},"outputId":"bdcc8b86-55b0-4bd0-b657-1410bc056062"},"execution_count":24,"outputs":[{"output_type":"execute_result","data":{"text/plain":["DebertaForSequenceClassification(\n","  (deberta): DebertaModel(\n","    (embeddings): DebertaEmbeddings(\n","      (word_embeddings): Embedding(50265, 768, padding_idx=0)\n","      (LayerNorm): DebertaLayerNorm()\n","      (dropout): StableDropout()\n","    )\n","    (encoder): DebertaEncoder(\n","      (layer): ModuleList(\n","        (0-11): 12 x DebertaLayer(\n","          (attention): DebertaAttention(\n","            (self): DisentangledSelfAttention(\n","              (in_proj): Linear(in_features=768, out_features=2304, bias=False)\n","              (pos_dropout): StableDropout()\n","              (pos_proj): Linear(in_features=768, out_features=768, bias=False)\n","              (pos_q_proj): Linear(in_features=768, out_features=768, bias=True)\n","              (dropout): StableDropout()\n","            )\n","            (output): DebertaSelfOutput(\n","              (dense): Linear(in_features=768, out_features=768, bias=True)\n","              (LayerNorm): DebertaLayerNorm()\n","              (dropout): StableDropout()\n","            )\n","          )\n","          (intermediate): DebertaIntermediate(\n","            (dense): Linear(in_features=768, out_features=3072, bias=True)\n","            (intermediate_act_fn): GELUActivation()\n","          )\n","          (output): DebertaOutput(\n","            (dense): Linear(in_features=3072, out_features=768, bias=True)\n","            (LayerNorm): DebertaLayerNorm()\n","            (dropout): StableDropout()\n","          )\n","        )\n","      )\n","      (rel_embeddings): Embedding(1024, 768)\n","    )\n","  )\n","  (pooler): ContextPooler(\n","    (dense): Linear(in_features=768, out_features=768, bias=True)\n","    (dropout): StableDropout()\n","  )\n","  (classifier): Linear(in_features=768, out_features=2, bias=True)\n","  (dropout): StableDropout()\n",")"]},"metadata":{},"execution_count":24}]},{"cell_type":"code","source":["# Test Dataset and DataLoader\n","test_dataset = TestDataset(df_test)\n","test_dataloader = DataLoader(\n","    test_dataset,\n","    batch_size=BATCH_SIZE,\n","    num_workers=NUM_CORES\n",")\n"],"metadata":{"id":"yZwDYQlAhujG","executionInfo":
…
